data.pth (torch, 545983 bytes, 6 tensors)

l1.weight f4 [250, 250]
0	0xbd173b2e	-0.036921673
1	0xbcd10428	-0.025514677
2	0xbd56d158	-0.05244574
3	0xbd2cb1c3	-0.042161714
4	0xbd7ce215	-0.061739046
5	0x3b693940	0.0035587102
6	0x3c5e9960	0.013586372
7	0xb9c77d00	-0.0003804937
8	0xbcfd0ec8	-0.030890837
9	0xbbc7e2b8	-0.006100025
10	0xbd153c97	-0.036434736
11	0xbc5072c4	-0.012722675
12	0xbbccfd60	-0.0062557906
13	0xbb60aa40	-0.0034281164
14	0x3cbc7fa0	0.023010075
15	0xbb981dc0	-0.0046422184
16	0x3cdb78e8	0.026791051
17	0xbd377971	-0.04479355
18	0x3d27c942	0.04096342
19	0xbb93e440	-0.0045132935
20	0x3d5d290a	0.053994216
21	0x3c08ba80	0.008345246
22	0x3bcb77a0	0.006209329
23	0x3d18e1d4	0.03732474
24	0xbae01600	-0.00170964
25	0xbc83cd12	-0.016088996
26	0x3d42d4aa	0.047566094
27	0x3cc5dc70	0.024152964
28	0x3b4cff60	0.0031280145
29	0xbd34242c	-0.04397981
30	0xbd80bd15	-0.062860645
31	0x3c7d47e8	0.015459038
32	0xbb27b190	-0.0025588013
33	0x3cf65228	0.030068472
34	0x3d062f96	0.032760225
35	0x3d6df1be	0.05809187
36	0x3c8eebf0	0.017446488
37	0x3d3e205e	0.046417587
38	0xbd2c927a	-0.04213188
39	0x3b0db9e0	0.0021625683
40	0xbd70e018	-0.058807462
41	0xbd5106a7	-0.051031735
42	0x3cdeeb04	0.027211674
43	0x3c9c900c	0.019111656
44	0xbd5633c6	-0.05229547
45	0x3c9ab9cc	0.018887423
46	0x3cb72904	0.022358425
47	0x3ca8ac84	0.020590074
48	0xbc834ec2	-0.016028766
49	0x3d60236c	0.05472128
50	0x3cbe99f4	0.02326677
51	0x3ba12670	0.004917912
52	0x3cbd9554	0.023142494
53	0x3caaaffc	0.020835869
54	0xbc85f5be	-0.01635253
55	0x3cf29ba4	0.02961523
56	0x3d5590f4	0.05214019
57	0x3d1a3726	0.03765025
58	0x3caaf920	0.020870745
59	0x3ca75524	0.02042634
60	0x3c109d30	0.008826539
61	0x3cc66ff8	0.024223313
62	0xbcc49af0	-0.023999661
63	0xbc129b0c	-0.008948099
64	0xbc0c6090	-0.008567944
65	0xbc848440	-0.016176343
66	0xbc9cbba4	-0.019132443
67	0xbd7d3e1b	-0.061826807
68	0xbc0390c0	-0.008030117
69	0x3c3c4a58	0.011492334
70	0x3b93ea40	0.0045140088
71	0x3d4576e8	0.0482091
72	0x3d4d9dd6	0.050199352
73	0xbc2cc644	-0.010545317
74	0xbcf6a8e4	-0.03010983
75	0x3ce9a474	0.0285208
76	0xbd428336	-0.047488414
77	0x3c84bce4	0.016203351
78	0x3d383312	0.04497058
79	0xbd4fee7e	-0.050764553
80	0x3d207874	0.039177373
81	0xbc1aac54	-0.0094405
82	0x3cd5c9c4	0.026097186
83	0x3cf39170	0.029732436
84	0xbd15e48a	-0.036594905
85	0x3c5c3f70	0.013442859
86	0xbcde228e	-0.027116086
87	0x3cafcd3c	0.021460168
88	0x3cda95d0	0.026682764
89	0xbd1927e2	-0.03739155
90	0x3d0164ba	0.0315902
91	0x3ca0b5dc	0.019617967
92	0xbd75a283	-0.059969436
93	0xbd35e42c	-0.044407055
94	0x3d0e9b1e	0.0348159
95	0x3d26ca80	0.040720463
96	0x3c3c5cb8	0.011496715
97	0x3d41640a	0.047214545
98	0x3d269cc6	0.040676855
99	0x3d0794c8	0.033100873
100	0x3c3cd900	0.011526346
101	0x3d38d796	0.045127474
102	0x3be4bb20	0.006980315
103	0x3d7a434e	0.061099343
104	0x3d38c3f6	0.045108758
105	0xbd3bf856	-0.04589113
106	0x3d7c1a16	0.061548315
107	0x3c6676f8	0.01406645
108	0xbc9309f2	-0.017949078
109	0x3cc608c4	0.024174102
110	0xbd5e32de	-0.05424773
111	0x3d158c52	0.036510773
112	0x3b4045e0	0.0029338524
113	0x3d36afd0	0.04460126
114	0xbc06fc34	-0.008238841
115	0x3ce99de0	0.028517663
116	0x3c748880	0.014925122
117	0xbbfda050	-0.007740058
118	0xbd812064	-0.06305006
119	0xbacb3060	-0.0015502088
120	0x3b963b80	0.0045847297
121	0xbcd01fca	-0.025405783
122	0x3d130e6e	0.035902433
123	0x3c8dfb04	0.017331608
124	0xbd4e5512	-0.050374098
125	0x3c761590	0.015019789
126	0x3d3d1fc0	0.046172857
127	0x3b902d70	0.004399948
128	0x3d7e4c08	0.062084228
129	0x3d4bca5c	0.04975353
130	0xbd51404b	-0.051086705
131	0xbd3d350e	-0.046193175
132	0xbce8fbf0	-0.028440446
133	0x3d4e2fd8	0.050338596
134	0xbd3447d8	-0.044013828
135	0x3cf8d604	0.030375488
136	0xbc127e0c	-0.008941185
137	0xbd1c5452	-0.03816635
138	0x3c369c48	0.011145659
139	0xbd49c113	-0.049256396
140	0xbd0b9f90	-0.034087718
141	0xbd2db684	-0.04241039
142	0x3d3b4d7a	0.045728184
143	0x3d4e93c0	0.050433874
144	0xbbbd9d18	-0.0057865493
145	0x3d5c0af4	0.053721383
146	0x3d476984	0.048684612
147	0x3d48564e	0.04891043
148	0xbc469f70	-0.012122974
149	0x3d531048	0.0515292
150	0x3d6d625a	0.057955123
151	0x3cd49bb4	0.025953151
152	0x3cc75394	0.024331845
153	0x3c285400	0.010273933
154	0xbcd78f78	-0.026313528
155	0x3d59da6c	0.05318682
156	0x3c11aff8	0.008892052
157	0xbc80252e	-0.015642729
158	0x3c34c708	0.011033781
159	0xbc795f4c	-0.015220474
160	0x3d67a39c	0.056552514
161	0xbb9ebf00	-0.0048445463
162	0x3aa2d880	0.0012424141
163	0x3d75e290	0.06003052
164	0xbd76d3eb	-0.060260694
165	0x3bf8e500	0.0075956583
166	0x3d8069d6	0.062701866
167	0x3d632e74	0.055464223
168	0xbc40ebf0	-0.011775002
169	0xbd5c09ac	-0.05372016
170	0x3d1dd8dc	0.03853689
171	0x3ccb3208	0.02480413
172	0xbd4c4be9	-0.04987708
173	0xbc9b111c	-0.018929057
174	0x3c889350	0.016671807
175	0xbc40e7e4	-0.011774037
176	0xba81fc00	-0.0009917021
177	0x3bca5500	0.0061746836
178	0xbbb67998	-0.0055686943
179	0xbd374600	-0.04474449
180	0xbd5d2960	-0.053994536
181	0xbcf6abde	-0.03011125
182	0xbd7e430a	-0.062075652
183	0x3b6ea720	0.0036415532
184	0xbd4a29de	-0.049356334
185	0x3d7b7222	0.061388142
186	0x3c9250c4	0.017860778
187	0x3cb37b18	0.021909282
188	0xbcd7ad66	-0.0263278
189	0xbcd4f072	-0.02599356
190	0x3d80f59e	0.06296848
191	0xbd182774	-0.037147
192	0x3d2c361a	0.042043783
193	0x3ae29ac0	0.0017288551
194	0x3bfef510	0.0077806786
195	0xbd68a8b9	-0.05680153
196	0x3bbdc410	0.0057911947
197	0xbc3f1108	-0.011661775
198	0x3d0a00b6	0.033692084
199	0x3d190fe8	0.037368685
200	0xbc571804	-0.013128284
201	0x3d4ad67c	0.049520954
202	0xbd6853fd	-0.056720722
203	0xbd337154	-0.04380925
204	0x3d2677aa	0.040641464
205	0x3d3ec14c	0.04657106
206	0xbd637e95	-0.05554064
207	0x3ceb1ca4	0.02870018
208	0xbd0b6e92	-0.034040995
209	0x3d664792	0.0562206
210	0xbd3dca0a	-0.046335258
211	0xbd5bd053	-0.05366547
212	0x3d7b0e60	0.061293006
213	0x3d2edb36	0.042689525
214	0xbd5363ea	-0.051608957
215	0x3cebc2d0	0.028779417
216	0xbd1660be	-0.036713354
217	0x3907fe00	0.00012969226
218	0x3d6e73d6	0.05821594
219	0x3d5c294e	0.05375033
220	0xbd6b542b	-0.057453316
221	0xbc80d218	-0.01572518
222	0xbcf20822	-0.029544894
223	0x3d4562dc	0.048189983
224	0xbd18dc42	-0.03731943
225	0x3c1ac4a8	0.009446301
226	0x3d51dc22	0.051235326
227	0x3d418f34	0.04725571
228	0x3d3155fc	0.04329489
229	0xbd184340	-0.03717351
230	0xbcf49950	-0.029858261
231	0x3d0690f4	0.03285308
232	0x3d0f3080	0.034958363
233	0xbd1cd85c	-0.038292274
234	0xbd4603d0	-0.04834348
235	0xbd459c6e	-0.048244886
236	0x3d3735f0	0.044729173
237	0x3cb6ad6c	0.02229949
238	0xbd63a331	-0.055575553
239	0x3d549ec6	0.05190923
240	0x3d418642	0.04724718
241	0xbce2efcc	-0.027702235
242	0x3d10458e	0.035222583
243	0xbccc748c	-0.024957918
244	0x3cb1b740	0.021693826
245	0xbd1fd489	-0.03902105
246	0x3cc7c5f4	0.024386384
247	0x3d4e1b88	0.050319225
248	0xbd484636	-0.048895083
249	0xbd3cd56a	-0.046101965
250	0xbc21ab60	-0.009867519
251	0xbd59d77e	-0.053184025
252	0xbc33469c	-0.010942128
253	0xbccae8ee	-0.024769273
254	0x3c017210	0.00790073
255	0xbd67eada	-0.056620456

l1.bias f4 [250]
0	0xbd50dfc0	-0.050994635
1	0xbc64f9e0	-0.0139755905
2	0x3d756558	0.059911102
3	0xbd359585	-0.044332046
4	0xbd3cadc4	-0.046064153
5	0x3cb89ba4	0.022535153
6	0x3c8bbef8	0.017058834
7	0xbd4cf87e	-0.050041668
8	0xbc057580	-0.00814569
9	0xbd416fc8	-0.047225744
10	0xbd1b82b8	-0.03796646
11	0xbcf078e8	-0.029354528
12	0x3d5b283a	0.05350516
13	0xbc884632	-0.016635034
14	0xbd22763e	-0.039663546
15	0x3b6c8aa0	0.003609337
16	0x3b64e520	0.0034926608
17	0xbcd4399e	-0.02590638
18	0x3be1fa40	0.006896287
19	0x3d24ed76	0.040265523
20	0xbd03ce84	-0.03217937
21	0xbce35152	-0.027748737
22	0xbce55190	-0.027992994
23	0x3d3038bc	0.043022856
24	0x3d21d80e	0.039512686
25	0xbb082ab0	-0.0020777397
26	0x3d4e78da	0.05040822
27	0x3d684bae	0.0567128
28	0xbccd7600	-0.02508068
29	0x3cc41c20	0.023939192
30	0x3ccce89c	0.02501326
31	0x3d81428a	0.063115194
32	0xbd1cd21c	-0.038286313
33	0xbd2ab7ce	-0.041679196
34	0x3cfb8a20	0.030705512
35	0xbc876cca	-0.016531367
36	0x3c4d2548	0.012521096
37	0x3d0f87a2	0.03504146
38	0x3cf25064	0.029579349
39	0x3ced5384	0.028970487
40	0x3d4f6594	0.05063398
41	0xbd25da6e	-0.040491514
42	0xbbb30278	-0.005462941
43	0xbcd90da8	-0.02649577
44	0x3c81a9d0	0.015828043
45	0x3ca87d90	0.020567685
46	0x3c727c28	0.014800109
47	0xbd7ccc96	-0.061718546
48	0xbcc9d2ae	-0.024636593
49	0xbd3f5acb	-0.046717446
50	0xbd51cc23	-0.05122007
51	0xbd2a171b	-0.04152594
52	0xbd2e689e	-0.04258024
53	0x3ca9351c	0.020655207
54	0xbc8bca32	-0.017064188
55	0xbd02436d	-0.031802583
56	0x3d374eba	0.044752814
57	0x3d290f64	0.041274443
58	0xbd7e0df2	-0.062025018
59	0xbbb13380	-0.0054077506
60	0xbd4f6071	-0.050629083
61	0xbcaf122c	-0.02137097
62	0x3d23547a	0.039875485
63	0x3d285356	0.0410951
64	0x3d1cf314	0.038317755
65	0x3cbc0c54	0.022955097
66	0x3c8628cc	0.016376875
67	0xbcbf19c2	-0.023327712
68	0xbac64300	-0.0015126169
69	0x3c85e44c	0.016344212
70	0x3c81be00	0.01583767
71	0x3d7a0ee4	0.061049357
72	0x3ce14fb8	0.027503833
73	0x3d01af30	0.031661212
74	0xbd01a443	-0.031650793
75	0x3a8679c0	0.0010259673
76	0xbb0b22e0	-0.0021230504
77	0x3b2c1240	0.0026255995
78	0x3ad04480	0.0015889555
79	0x3ca20d08	0.019781604
80	0xbcf42478	-0.029802546
81	0xbd6f3bdc	-0.058406696
82	0x3ca766c0	0.020434737
83	0x3d06d344	0.032916322
84	0xbd7eb2d5	-0.062182266
85	0x3b19df40	0.0023479015
86	0xbc8258ec	-0.015911542
87	0xbd299374	-0.041400388
88	0xbc0d3f28	-0.008621015
89	0xbd4f2795	-0.050574858
90	0x3d43d698	0.047812074
91	0xbc969248	-0.0183803
92	0x3d743f54	0.059630707
93	0x3d69e238	0.057100505
94	0xbc4b2958	-0.012399994
95	0x3a118680	0.0005551353
96	0x3cbf9974	0.023388602
97	0x3cb76294	0.022385873
98	0xbb76d300	-0.0037662387
99	0xbd1a02a0	-0.03760016
100	0x3cc16c54	0.023611225
101	0x3d05c276	0.032656156
102	0x3d2741b4	0.040834144
103	0xbcc4f8ce	-0.02404442
104	0xbc9947ea	-0.01871105
105	0x3d367cca	0.044552602
106	0x3d57f98a	0.052728213
107	0xbcfdf9de	-0.031002935
108	0xbce76800	-0.028247833
109	0x3cc6b2d8	0.024255201
110	0x3d5fbd20	0.054623723
111	0xbd05c6ee	-0.032660417
112	0xbd09bc09	-0.03362659
113	0xbd4900e7	-0.049073126
114	0xbcdac10e	-0.026703384
115	0xbc8bdbd4	-0.017072596
116	0x3cce4874	0.025181033
117	0xbd6d93d8	-0.058002323
118	0xbcaae0d4	-0.02085916
119	0xbb642210	-0.0034810342
120	0x3b0442a0	0.0020181313
121	0xbd542b35	-0.051799018
122	0xbd600112	-0.05468852
123	0xbcd3425c	-0.025788479
124	0xbc4a78ac	-0.012357872
125	0x3d334af4	0.043772653
126	0xbb0e0e10	-0.0021675862
127	0x3b020000	0.0019836426
128	0x3cb3d43c	0.021951787
129	0xbb253120	-0.0025206283
130	0x3d338586	0.04382851
131	0x3d7ea2f4	0.062167123
132	0x3cac1ac8	0.021008864
133	0xbb208b00	-0.0024496913
134	0x3d5d931a	0.054095365
135	0xbcb76396	-0.022386353
136	0xbd5a1e76	-0.053251706
137	0x3d25889a	0.040413477
138	0x3d4fc08c	0.050720736
139	0x3c6b6c28	0.014369048
140	0xbd24a17c	-0.040193066
141	0x3b532300	0.0032216907
142	0x3d2de70a	0.042456664
143	0x3cc00f7c	0.023444884
144	0x3d06eae2	0.032938845
145	0x3d0f61fe	0.035005562
146	0xbd5e5c53	-0.054287266
147	0x3c9bdbc4	0.01902569
148	0x3d807802	0.0627289
149	0xbc74b220	-0.014935046
150	0x3b3a38e0	0.0028415248
151	0xbc98cc28	-0.018652037
152	0x3d4e3fba	0.050353743
153	0xbb8ca680	-0.0042923093
154	0x3d0829aa	0.03324286
155	0x3d68b6cc	0.056814954
156	0x3d641998	0.05568847
157	0xbd389e1e	-0.045072667
158	0x3d521ff2	0.051299997
159	0xbd7bc7e7	-0.06146994
160	0xbc1dfb00	-0.009642363
161	0xbd4c39d5	-0.04985984
162	0xbd5f2b7e	-0.054484837
163	0x3d44d58c	0.048055217
164	0xbd540c9d	-0.05176984
165	0xbd12e82d	-0.03586595
166	0x3c85214c	0.016251229
167	0xbc9690d0	-0.018379599
168	0x3d7c09b6	0.0615327
169	0xbd37664e	-0.0447753
170	0x3d4598b2	0.048241325
171	0xbcc88810	-0.024478942
172	0xbc412010	-0.011787429
173	0x3ce36c34	0.027761556
174	0x3d067e66	0.032835387
175	0xbd178ccc	-0.03699951
176	0x3b53abe0	0.003229849
177	0x3d5d764a	0.054067887
178	0x3cbac1c4	0.022797473
179	0x3c09e6d8	0.008416854
180	0xbc63dabc	-0.013907131
181	0xbd68f5bf	-0.056874987
182	0xbbe87fe0	-0.007095322
183	0x3cbb5534	0.022867776
184	0xbd2b7a5c	-0.041864738
185	0xbcef31e2	-0.02919859
186	0x3d13549e	0.03596937
187	0xb97dd600	-0.00024207681
188	0xbc5fcb8c	-0.013659369
189	0x3c5e75f8	0.013577931
190	0xbd01ea79	-0.03171775
191	0x3d717600	0.058950424
192	0x3d553ce0	0.052060008
193	0xbcc57c4c	-0.02410712
194	0x3d0aa524	0.033848897
195	0x3c552f58	0.013011776
196	0x3d59a6d6	0.053137623
197	0xbd59d98a	-0.053185977
198	0x3beeb240	0.0072844326
199	0x3c4d1ce0	0.012519091
200	0x3cc014b4	0.023447372
201	0x3c4306c8	0.011903472
202	0x3d3af1ee	0.04564088
203	0xbd7dc2eb	-0.061953466
204	0xbb74c140	-0.0037346631
205	0xbcebe2d2	-0.02879468
206	0x3d2a436a	0.041568197
207	0x3d2d1402	0.04225541
208	0xbab98100	-0.0014152825
209	0xbd222b0d	-0.039591838
210	0xbd31f085	-0.043442268
211	0x3c876924	0.016529627
212	0x3c5bda58	0.013418756
213	0xbd07ffdc	-0.03320299
214	0xbd4e6be9	-0.05039588
215	0x3d728722	0.059210904
216	0x3d562570	0.052281797
217	0xbcfbb4d8	-0.030725881
218	0x3d009900	0.031395912
219	0x3d0e67ea	0.03476707
220	0xbd10a059	-0.03530917
221	0xbd30561c	-0.04305087
222	0x3cf86720	0.030322611
223	0x3be4caf0	0.0069822
224	0xbc4f6af8	-0.012659781
225	0xbd4b4551	-0.049626652
226	0x3c2b2398	0.010445498
227	0xbcd18a5c	-0.02557867
228	0x3d136c0a	0.035991706
229	0xbcb08ad8	-0.02155058
230	0xbc08ac64	-0.008341882
231	0x3cec7a30	0.028866857
232	0xbacffee0	-0.0015868805
233	0xba2a3f00	-0.0006494373
234	0xbc51d948	-0.012808152
235	0x3d133482	0.035938747
236	0x3d6db146	0.05803039
237	0x3c9de3a4	0.019273587
238	0xbcc176d8	-0.02361624
239	0x3d4a931e	0.049456708
240	0x3d6af070	0.057358205
241	0x3c909878	0.017650828
242	0x3d136876	0.035988294
243	0xbd6ba6d1	-0.057532135
244	0x3d01c36e	0.031680517
245	0xbd607036	-0.054794513
246	0x3d6fb42c	0.058521435
247	0xbc529fe8	-0.012855507
248	0xbb5ec600	-0.003399253
249	0x3c8397f0	0.01606366

l2.weight f4 [250, 250]
0	0x3d808b1c	0.06276533
1	0xbd066afe	-0.03281688
2	0xbd286804	-0.041114822
3	0xba997960	-0.0011709146
4	0xbd218088	-0.039429218
5	0xbd58cb58	-0.0529283
6	0xbd42a1e6	-0.04751768
7	0x3d504ff8	0.050857514
8	0x3d320aa6	0.043467186
9	0x3d62aca4	0.055340424
10	0x3d387b2e	0.04503935
11	0xbd28938e	-0.041156344
12	0xbcd98d66	-0.026556682
13	0xbd5cda34	-0.053919032
14	0xbd1f52ab	-0.038897198
15	0x3d7701e2	0.06030453
16	0xbc62bf04	-0.013839487
17	0xbc9d36c0	-0.019191146
18	0xbb9e33b8	-0.0048279427
19	0x3cc93518	0.02456145
20	0xbd386dcc	-0.045026585
21	0x3c9ea308	0.019364849
22	0x3ad1a740	0.0015995279
23	0x3c366608	0.011132725
24	0xbb40b9e0	-0.0029407665
25	0x3c502f60	0.012706608
26	0x3c83eaa4	0.016103096
27	0x3c51b240	0.012798846
28	0xbd7068a4	-0.058693543
29	0xbc57dc94	-0.0131751485
30	0xbd360554	-0.044438675
31	0x3cff64cc	0.031175993
32	0x3c0e5f88	0.008689769
33	0xbd1db95a	-0.038506843
34	0xbc0c4c94	-0.0085631795
35	0x3b1dfda0	0.002410747
36	0xbbd16a18	-0.006390821
37	0x3c39d420	0.011342078
38	0xbcab6eac	-0.020926796
39	0x3cb5c30c	0.022187732
40	0xbd29e382	-0.041476734
41	0xbcc8336a	-0.024438579
42	0x3d1eac22	0.038738377
43	0xbd2bac5c	-0.04191242
44	0x3d81674e	0.06318532
45	0x3cd72484	0.02626253
46	0xbd61ae03	-0.05509759
47	0xbd66494e	-0.056222253
48	0x3cbbd348	0.022927895
49	0xbd6f74aa	-0.05846087
50	0xbc23d010	-0.009998336
51	0xbcb5175e	-0.022105869
52	0xbce43b9e	-0.027860459
53	0x3b48a100	0.0030613542
54	0x3cdd0000	0.026977539
55	0x3d5bd580	0.053670406
56	0xbd63b033	-0.05558796
57	0xbd61a472	-0.055088468
58	0xbcf0d0b6	-0.029396396
59	0xbd688ad5	-0.056773026
60	0xbc0c05c0	-0.008546293
61	0x3d6b459c	0.05743943
62	0xbca25ed4	-0.019820608
63	0x3cdcae28	0.026938513
64	0x3d0ca616	0.03433808
65	0x3d6c00f0	0.05761808
66	0xbca6d14e	-0.020363476
67	0x3c94000c	0.018066429
68	0x3c9c9af8	0.019116864
69	0x3c8867c0	0.016651034
70	0xbd2b3862	-0.041801818
71	0x3cb38d08	0.021917835
72	0x3c92da5c	0.017926387
73	0x3c49deb0	0.012321159
74	0x3c656650	0.014001444
75	0x3d44828e	0.04797607
76	0x3b8d8420	0.004318729
77	0xbc81185c	-0.015758686
78	0x3d7fb7b0	0.062431037
79	0x3d5e11cc	0.05421619
80	0xbcbf478c	-0.023349546
81	0xbc937f92	-0.018005166
82	0xba205500	-0.00061161816
83	0xbd6f7317	-0.058459368
84	0xbcc6b6b8	-0.024257049
85	0xbccf17ce	-0.025279906
86	0xbc07b60c	-0.008283149
87	0xbd809680	-0.062787056
88	0xbd1f7be0	-0.038936496
89	0x3b976460	0.00462012
90	0xbd012368	-0.031527907
91	0xbcbe9094	-0.0232623
92	0x3d7c7902	0.06163884
93	0xbc9a0e14	-0.018805541
94	0x3b848df0	0.0040452406
95	0xbd36d85b	-0.044639926
96	0xbcc9f730	-0.024654001
97	0x3c0fdbd0	0.008780435
98	0x3cf381a4	0.029724903
99	0xba9ee780	-0.0012123436
100	0x3d1993f4	0.037494615
101	0x3d3afb14	0.045649603
102	0xbcb6b718	-0.022304103
103	0x3d23aa9c	0.039957628
104	0x3d0e2532	0.03470344
105	0xbd18daa2	-0.03731788
106	0x3b2785e0	0.0025561973
107	0x3d22a3f6	0.039707147
108	0xbd562a39	-0.05228636
109	0xbcdc6222	-0.026902262
110	0x3d129976	0.035790883
111	0x3d137644	0.03600146
112	0x3d6f8994	0.058480814
113	0x3bc5b460	0.0060334653
114	0x3ca8833c	0.02057039
115	0x3b893f70	0.0041884705
116	0x3d1cc490	0.038273394
117	0x3d6eb5d4	0.058278874
118	0xbd0228cb	-0.031777184
119	0xbd1a4ccc	-0.037670895
120	0xbce60cde	-0.028082307
121	0xbc85365e	-0.016261276
122	0x3d0c836a	0.034305014
123	0xbd07ec29	-0.033184204
124	0xbd1a6c19	-0.037700746
125	0x3d5d7d86	0.054074787
126	0xbba2d2d0	-0.0049689785
127	0xbd2032fa	-0.039111115
128	0xbd457d00	-0.048214912
129	0x3d416d52	0.047223397
130	0x3d56c08a	0.052429713
131	0x3cfae3c8	0.030626193
132	0xbc7db89c	-0.015485909
133	0xbd2eff68	-0.042724043
134	0xbd419192	-0.047257967
135	0x3bfab3a0	0.0076508075
136	0x3d15796c	0.03649275
137	0xbac94e00	-0.0015358329
138	0x3ce7a8d0	0.028278738
139	0x3c9dfbf4	0.01928518
140	0xbc9dc2c2	-0.019257907
141	0xbd5ae50b	-0.05344109
142	0xbd4d74ee	-0.05016034
143	0x3c26a618	0.010171436
144	0xbcd7dd1a	-0.026350547
145	0xbd7c196f	-0.061547693
146	0xbcfd541c	-0.030923896
147	0x3d71cf04	0.059035316
148	0x3b3f1100	0.002915442
149	0x3d28e7d0	0.0412367
150	0xbd4ea5a3	-0.050450932
151	0xbb04da10	-0.0020271577
152	0x3d473710	0.048636496
153	0xbd431b52	-0.047633477
154	0xbc564318	-0.01307752
155	0xbd2cb6ce	-0.042166524
156	0x3bf387a0	0.0074319392
157	0xba563480	-0.0008171275
158	0xbd5dfde8	-0.054197222
159	0xbc884cfc	-0.016638272
160	0xbd39c568	-0.045354277
161	0x3c754740	0.014970601
162	0xbd55f6ce	-0.052237324
163	0x398d6400	0.00026968122
164	0x3d3767fe	0.04477691
165	0xbd60851d	-0.054814447
166	0xbd24a0ab	-0.040192287
167	0x3d0cfcf8	0.034420937
168	0xbcd30c38	-0.025762662
169	0x3c073320	0.008251935
170	0x3d05b908	0.032647163
171	0x3d679428	0.056537777
172	0x3be1f4a0	0.0068956167
173	0xbd72a730	-0.059241474
174	0x3d222370	0.039584577
175	0x3c482d68	0.012217857
176	0xbcd1abee	-0.025594678
177	0x3c492e80	0.012279153
178	0xbd7fa1bc	-0.0624101
179	0x3d68c03c	0.056823954
180	0x397df400	0.00024218857
181	0x3d5e1bf8	0.05422589
182	0x3d221a10	0.039575636
183	0x3d478cbc	0.0487182
184	0x3d6bfd1a	0.057614423
185	0xbd68e542	-0.056859262
186	0xbcdd5baa	-0.027021248
187	0x3ce58468	0.028017238
188	0x3c7121b0	0.014717504
189	0xbb888ef8	-0.004167434
190	0x3c54aaf0	0.012980208
191	0x3cdc77cc	0.026912592
192	0x3d0bd78e	0.034141116
193	0xbc6e1504	-0.014531378
194	0x3c022498	0.007943295
195	0x3d800ee6	0.06252842
196	0xbd468e6d	-0.04847567
197	0x3babbd20	0.0052410513
198	0x3d5c501c	0.053787336
199	0xbd5e28c9	-0.054238115
200	0xbd675219	-0.05647478
201	0xbd28f2fa	-0.041247346
202	0xbd5219ad	-0.051294018
203	0xbcb10eae	-0.021613445
204	0x3c0913c0	0.008366525
205	0xbccdb440	-0.025110364
206	0x3d805182	0.062655464
207	0x3ce03eec	0.027373753
208	0x3d0b551c	0.034016714
209	0x3d4ae4fe	0.04953479
210	0xbcd66858	-0.026172802
211	0x3d33e3e4	0.043918505
212	0xbd7f51c3	-0.062333833
213	0xbd33c772	-0.043891378
214	0xbd0b01c2	-0.033937223
215	0xbd74c08f	-0.05975395
216	0x3b570a80	0.0032812655
217	0x3c087730	0.008329198
218	0x3d6c9438	0.05775854
219	0xbd137603	-0.036001217
220	0x3ca1af94	0.019737042
221	0x3b52e6e0	0.003218107
222	0x3d335a16	0.043787085
223	0xbd584432	-0.05279941
224	0x3d38082a	0.04492966
225	0x3d4e6634	0.050390437
226	0x3d04f6d8	0.03246197
227	0xbca660a2	-0.02030975
228	0x3d04cb1a	0.032420255
229	0xbb8e7958	-0.0043479614
230	0xbd32d996	-0.043664537
231	0x3d0da95a	0.034585334
232	0xbd7f8dff	-0.062391277
233	0xbce5065a	-0.02795713
234	0xbccbd7ca	-0.02488317
235	0xbcb4aa2c	-0.0220538
236	0xbd2bc1c1	-0.041932825
237	0x3d1d78f2	0.03844542
238	0xbc8b6ae8	-0.01701875
239	0xbc5a36ac	-0.013318699
240	0xbcb70fa8	-0.022346333
241	0x3d6b1354	0.05739148
242	0xbcc6b830	-0.02425775
243	0x3d6e8e64	0.058241263
244	0xbd4a2c4f	-0.049358662
245	0xbcab51a4	-0.020912953
246	0xbd5038fa	-0.050835587
247	0x3be819b0	0.0070831403
248	0xbd57e96b	-0.05271284
249	0xbd2cea90	-0.042215884
250	0xbd515acb	-0.051111978
251	0x3b8bf590	0.0042712167
252	0x3d5e7996	0.054315172
253	0xbd7a3a0b	-0.06109051
254	0x3cc600ec	0.024170361
255	0x3cccaf80	0.024986029

l2.bias f4 [250]
0	0xbd0f5554	-0.034993485
1	0x3d43ca58	0.047800392
2	0xbd0ac9f6	-0.03388401
3	0xbd283958	-0.041070312
4	0x3ce84ae4	0.028356023
5	0xbd77cfa0	-0.06050074
6	0xbd7df32b	-0.06199948
7	0x3d7810da	0.060562946
8	0x3d3428d6	0.043984257
9	0xbcbe1ba4	-0.02320654
10	0x3d611aa4	0.054957047
11	0x3cf9969c	0.030467324
12	0x3cb9f5b4	0.022700168
13	0x3d6c649a	0.05771313
14	0xbd2eb36f	-0.04265159
15	0xbd56c7d3	-0.05243666
16	0xbd0559bc	-0.03255628
17	0xbc9f4bbc	-0.019445293
18	0x3c9be2c4	0.019029029
19	0xbcf76914	-0.030201472
20	0x3d74665c	0.05966793
21	0x3c5ca4a0	0.013466984
22	0xbcfbee7e	-0.03075337
23	0xbd76a8e7	-0.06021967
24	0x3c89f4a4	0.016840287
25	0xbcca222a	-0.024674494
26	0xbcb3bb30	-0.021939844
27	0x3d4b8218	0.049684614
28	0x3d0280ee	0.03186124
29	0x3d80ad5a	0.06283064
30	0xbcdb1c4e	-0.026746895
31	0x3d1a6906	0.037697814
32	0xbd475417	-0.04866418
33	0xbd699f16	-0.05703648
34	0xbc60652c	-0.013695996
35	0x3d03f926	0.03222003
36	0x3d41298c	0.047158763
37	0x3d545294	0.051836565
38	0xbd3c219b	-0.045930486
39	0x3cb47180	0.022026777
40	0xbca2280a	-0.019794483
41	0x3d3c7e76	0.04601904
42	0xbc612974	-0.013742793
43	0x3d7ae664	0.061254874
44	0x3c5fc4a0	0.013657719
45	0x3d3b261c	0.04569064
46	0x3d503d98	0.05083999
47	0x3d75a00e	0.059967093
48	0xbccc4eb2	-0.024939869
49	0x3c1af7a0	0.009458452
50	0xbd688aef	-0.056773122
51	0xbd0963a6	-0.033542298
52	0x3d1e95c2	0.03871704
53	0xbce3f368	-0.027826026
54	0xbce82aea	-0.028340776
55	0x3d14b2f0	0.03630346
56	0xbc0b406c	-0.008499246
57	0xbd0f4182	-0.034974582
58	0x3d2e5818	0.04256448
59	0x3c397d40	0.011321366
60	0x3c8f3d10	0.017485172
61	0xbc244980	-0.010027289
62	0xbd1c02fd	-0.038088787
63	0x3d173682	0.036917217
64	0xbd6393b5	-0.055560786
65	0xbc99688c	-0.01872661
66	0xbc2d0c18	-0.010561965
67	0x3c529ea8	0.012855209
68	0xbd316baa	-0.043315567
69	0x3d7b94d2	0.061421223
70	0x3d747eae	0.059691124
71	0xbc13c7b8	-0.009019785
72	0xbcc2894e	-0.023747113
73	0x3c66dfd0	0.014091447
74	0xbb332400	-0.002733469
75	0x3d6cfdee	0.057859354
76	0xbd69a626	-0.057043217
77	0x3d1bb818	0.038017362
78	0x3d4b3172	0.0496077
79	0xbd10a038	-0.035309047
80	0x3d118e5a	0.035536148
81	0xbc7d74d0	-0.015469745
82	0xbbb55280	-0.0055335164
83	0x3c807f4c	0.0156857
84	0xbd348bee	-0.04407876
85	0xbbb457c8	-0.0055036284
86	0xbc66ce14	-0.014087219
87	0x3d1b614e	0.037934594
88	0x3ba18360	0.004928991
89	0xbd089e1c	-0.03335391
90	0xbce4f2f6	-0.027947884
91	0xbcb4882a	-0.022037584
92	0xbb2c5c20	-0.0026300028
93	0x3d7846e6	0.06061449
94	0xbcf06604	-0.02934552
95	0x3d14d956	0.03634008
96	0xbc91a20c	-0.017777465
97	0x3cd9e07c	0.0265963
98	0xbca6e252	-0.02037159
99	0x3c6b02c8	0.014343925
100	0xbc88fdc4	-0.016722567
101	0x3d221ec2	0.039580114
102	0xbbfd2338	-0.0077251457
103	0xbccb76fa	-0.024837006
104	0x3cee8738	0.029117212
105	0x3d2364d8	0.039891094
106	0xbc8b3274	-0.016991831
107	0xbd7a708d	-0.061142493
108	0xbd070ea2	-0.03297294
109	0x3d76be24	0.060239926
110	0x3c7bd910	0.015371576
111	0xbd7ab736	-0.06120988
112	0x3b2c0cc0	0.0026252717
113	0xbc83c2d0	-0.016084105
114	0x3d0c405e	0.034241073
115	0xbce71aec	-0.02821108
116	0xbd07b913	-0.033135485
117	0x3cac3068	0.021019176
118	0x3c282e38	0.010264926
119	0xbd573169	-0.052537356
120	0xbd1be3b0	-0.038058937
121	0x3c97f3a0	0.018548787
122	0xbc4bf7e8	-0.012449242
123	0x3cf497d0	0.029857546
124	0x3d0dafce	0.03459149
125	0x3d39a7bc	0.04532598
126	0x3c589a60	0.0132204
127	0xbd0ee7c0	-0.034888983
128	0xbc35ea7c	-0.011103269
129	0x3d78aeb2	0.060713477
130	0x3c16e638	0.009210162
131	0xbc8b8a9e	-0.017033871
132	0x3d44c74c	0.048041627
133	0xbb8ff218	-0.0043928735
134	0xbaefe020	-0.0018301047
135	0xbd8026c6	-0.062573954
136	0x3d3fd992	0.04683835
137	0x3c241438	0.010014586
138	0xbc98d9ac	-0.018658482
139	0xbd79e949	-0.061013494
140	0x3d148352	0.03625805
141	0x3b7d73c0	0.0038673729
142	0x3d7195f6	0.058980905
143	0x3b26c760	0.0025448427
144	0x3bcaa9d0	0.006184794
145	0x3d1f8216	0.03894242
146	0x3d7ef480	0.062244892
147	0x3ca7e9d0	0.020497233
148	0xbd1cd5bd	-0.038289774
149	0xbc39c3e0	-0.011338204
150	0xbd811891	-0.06303514
151	0xbccd4842	-0.02505887
152	0x3d34c8d4	0.044136837
153	0x3d37e99c	0.04490052
154	0x3d15a892	0.036537714
155	0xbd2af8bc	-0.041741118
156	0xbcd71064	-0.026252933
157	0xbca3cb58	-0.019994423
158	0x3c7f6c48	0.015589781
159	0x3d04fb78	0.03246638
160	0xbd1a249b	-0.037632566
161	0xbc39bcc4	-0.011336509
162	0xbd817d3e	-0.06322716
163	0x3bbb6020	0.005718246
164	0x3cd32e38	0.025778875
165	0x3be06d20	0.006848946
166	0x3bff89d0	0.007798411
167	0x3d1766f6	0.036963426
168	0xbd52c64a	-0.051458634
169	0x3d50ff86	0.051024936
170	0xbc369984	-0.011144999
171	0xbd1c67d9	-0.038184974
172	0x3d603f6a	0.054747976
173	0xbd1e67ea	-0.03867332
174	0x3c84ebb8	0.01622568
175	0xbd34c596	-0.044133745
176	0xbc96049c	-0.018312745
177	0xbcfc87ac	-0.030826412
178	0x3d7d2d08	0.061810523
179	0x3b019540	0.0019772798
180	0xbc96ecc0	-0.018423438
181	0xba178000	-0.00057792664
182	0x3d1a2346	0.037631296
183	0xbd0441fa	-0.032289483
184	0x3cbfb628	0.023402289
185	0xbcbe6002	-0.02323914
186	0xbd06d302	-0.032916076
187	0x3d3eab24	0.04654993
188	0x3d444418	0.0479165
189	0x3ce3c0ec	0.027801953
190	0x3cf01e14	0.029311217
191	0x3d0d5aa6	0.034510277
192	0x3a628c80	0.0008642152
193	0x3cd5b8b0	0.026089042
194	0x3d7b0140	0.06128049
195	0x3c14bae8	0.009077765
196	0x3d4d7dfa	0.05016897
197	0xbd06ab5b	-0.03287826
198	0xbcf85a40	-0.030316472
199	0xbc90e78e	-0.017688539
200	0xbbdcad98	-0.006734561
201	0xbd1c0a82	-0.03809596
202	0x3cb52ce8	0.02211614
203	0xbd21b4fa	-0.039479233
204	0xbb2427a0	-0.0025048032
205	0x3d16256e	0.03665679
206	0x3d585d78	0.052823514
207	0xbd76ca19	-0.06025133
208	0x3ca0f900	0.019649982
209	0x3d4c5526	0.04988589
210	0x3c570e30	0.013125941
211	0xbc49b49c	-0.012311127
212	0x3d30fe1c	0.043211088
213	0x3d41da16	0.047327124
214	0x3d3609da	0.04444299
215	0xbd64156c	-0.055684492
216	0xbd1ef7c2	-0.0388105
217	0x3d6e949e	0.0582472
218	0x3d7492bc	0.05971025
219	0xbd464f0e	-0.048415236
220	0xbc15e904	-0.009149794
221	0x3d122722	0.03568185
222	0x3d09e722	0.03366769
223	0x3d72dff0	0.059295595
224	0xbc080688	-0.008302338
225	0x3d784264	0.06061019
226	0x3c9141b4	0.017731525
227	0xbd47157e	-0.04860448
228	0x3d731fd2	0.059356518
229	0x3d2ad8a2	0.041710503
230	0xbd3f91fe	-0.04677009
231	0x3d4bc750	0.049750626
232	0x3c1c7528	0.009549417
233	0x3cb99d9c	0.022658162
234	0xbd334cf4	-0.04377456
235	0x3d493d10	0.0491305
236	0xbc952748	-0.018207207
237	0xbb02d9c0	-0.0019966215
238	0xbb439bb0	-0.0029847436
239	0x3cfccf68	0.030860618
240	0xbd6fe4f0	-0.05856794
241	0x3ca5581c	0.020183615
242	0xbceb04e4	-0.028688855
243	0x3d11d73e	0.03560566
244	0x3d751cf8	0.05984208
245	0xbd5a091e	-0.05323135
246	0x3c1a6740	0.009424031
247	0xbd310337	-0.043215957
248	0xbd0eac7c	-0.034832463
249	0xbb8c2f38	-0.00427809

l3.weight f4 [38, 250]
0	0xbf8aeb71	-1.0853101
1	0xbd2557f6	-0.04036709
2	0xbbf8aabd	-0.007588713
3	0xbd13eee8	-0.03611651
4	0xbf9838d9	-1.1892349
5	0xbed0ca8e	-0.40779537
6	0xbf87014f	-1.0547274
7	0xc0150795	-2.3285878
8	0xbba98622	-0.0051734606
9	0x40f6aa66	7.7083006
10	0xbd3f8582	-0.046758182
11	0xc01341a6	-2.3008819
12	0xbd8c9fcc	-0.06866416
13	0xbf65c770	-0.8975744
14	0x3b88c660	0.004174039
15	0xbf076d4a	-0.52901137
16	0xbd81e2a8	-0.063420594
17	0xbdc13636	-0.09434168
18	0xbf80fec1	-1.0077745
19	0xc040dcf7	-3.0134866
20	0xbf902acc	-1.126306
21	0xc012e543	-2.295243
22	0xbf9edf7b	-1.2411951
23	0xbd2b0b66	-0.041758917
24	0xbd511c40	-0.051052332
25	0xbf6310f9	-0.88697773
26	0xbfa02f72	-1.2514479
27	0xbf2a6716	-0.66563547
28	0xbd64e401	-0.055881504
29	0xbf4832bd	-0.7820242
30	0xc0118ca1	-2.2742083
31	0xbdd3ef63	-0.10348394
32	0xbd66975c	-0.05629669
33	0xc0128bf8	-2.289793
34	0xc00de465	-2.217065
35	0xbf3f4b6f	-0.7472448
36	0x3c1e3c4f	0.009657933
37	0xc011b03c	-2.2763815
38	0xc013384a	-2.3003106
39	0xc011d289	-2.278475
40	0xbfa5b7d9	-1.2946731
41	0xbf8ee4c2	-1.1163561
42	0xc01f4d1c	-2.4890814
43	0xbd6e5d9b	-0.058194738
44	0xbc8b655e	-0.01701611
45	0xbee6b83f	-0.45062444
46	0xbd89b0a2	-0.06723143
47	0xbef29ae0	-0.47383785
48	0xbf4e8b0f	-0.80680937
49	0xbf50a92c	-0.81508136
50	0xbf016800	-0.50549316
51	0xbf8182ad	-1.0118004
52	0x39a90700	0.00032239407
53	0xbdf2580a	-0.11833198
54	0xc019a20e	-2.400516
55	0xbd42f5eb	-0.047597807
56	0xc0127209	-2.2882102
57	0xc011b941	-2.276932
58	0xbd63bd8c	-0.055600688
59	0xbfdbf5b3	-1.7184356
60	0xc01187a0	-2.273903
61	0xbca32a6a	-0.019917686
62	0xc042869a	-3.0394654
63	0xc011cf35	-2.278272
64	0xbdbb99b7	-0.09160178
65	0xbf89cac6	-1.0765007
66	0x3d37e088	0.044891864
67	0xbf05f44a	-0.5232588
68	0xc04249c0	-3.0357513
69	0xbea2b4bb	-0.3177851
70	0x3ccb51e4	0.024819322
71	0xbfcbb890	-1.5915699
72	0xc091d750	-4.5575333
73	0xbd73af7b	-0.059493523
74	0xbf971eb7	-1.1806248
75	0xbf0243b0	-0.5088453
76	0xbf7c4957	-0.9854941
77	0xbf95d8d6	-1.1706798
78	0xbfd6a9ae	-1.6770532
79	0xbf48d877	-0.784553
80	0xbf8b3b1d	-1.0877415
81	0x3d3f0c40	0.046642542
82	0xbfbe2a70	-1.4856701
83	0xc0144867	-2.316919
84	0xc011954b	-2.2747371
85	0xbcc3318e	-0.02382734
86	0xc012872f	-2.289501
87	0xbd3230c5	-0.04350354
88	0xc05cf8e8	-3.452692
89	0xbe832e0b	-0.25621065
90	0xc03697f2	-2.853024
91	0xc011d3cd	-2.2785523
92	0x403a0bd1	2.9069712
93	0x3c742546	0.014901465
94	0xbce116a4	-0.027476616
95	0xc0132349	-2.2990286
96	0xc012c398	-2.293188
97	0xc011e2c5	-2.279466
98	0xbf013610	-0.5047312
99	0xbfbb7926	-1.4646347
100	0xbd1cf4d6	-0.03831943
101	0xbf062002	-0.5239259
102	0xbef7237d	-0.48269263
103	0xbf9ae9c1	-1.2102586
104	0xc0127775	-2.288541
105	0xbee273cb	-0.44228968
106	0xc012a527	-2.29133
107	0x3c9e2e90	0.019309312
108	0xbcf49e66	-0.029860687
109	0x3d616011	0.055023257
110	0xc0124479	-2.2854292
111	0xc011f8ce	-2.2808108
112	0xc0328e01	-2.7899172
113	0xbe73c61d	-0.23806043
114	0xc0117940	-2.2730255
115	0xc01167ad	-2.2719529
116	0xbd301b77	-0.042994943
117	0xc012b1f9	-2.2921126
118	0xc0152505	-2.3303845
119	0xc01e87f0	-2.477047
120	0xbff4028a	-1.9063275
121	0x3f1490db	0.5803353
122	0xbfc5a3de	-1.5440633
123	0xc01282bd	-2.2892296
124	0x401acc58	2.4187222
125	0xbd7a0b90	-0.061046183
126	0xbf920391	-1.1407338
127	0xbf8ef67e	-1.1168973
128	0xc011ef20	-2.28022
129	0xbfa54ccf	-1.2914065
130	0x3e56439f	0.20924233
131	0xc014c0ea	-2.3242745
132	0xbf8c63eb	-1.0967993
133	0xbd839eee	-0.06426798
134	0xc01296f4	-2.2904634
135	0xbef79b69	-0.48360756
136	0xbef00f38	-0.4688661
137	0xbfb4a5fd	-1.4113156
138	0xc0123284	-2.2843332
139	0xbf20eabb	-0.6285817
140	0xc011ac3b	-2.276137
141	0xbf0c8cb2	-0.54902184
142	0x3b983ef0	0.0046461746
143	0xbd82c89f	-0.06385922
144	0xbe7acc18	-0.24491918
145	0x3d4c3c12	0.049861975
146	0xbf3e8937	-0.74428123
147	0xbea1ab1f	-0.31575868
148	0xbf8a29b4	-1.0793977
149	0xbf4f80db	-0.8105599
150	0xbf0b3e87	-0.54392284
151	0xbf952b81	-1.1653901
152	0xbe0bd66b	-0.13656013
153	0xbd801b72	-0.06255235
154	0xc0618a97	-3.5240839
155	0xc014e691	-2.3265727
156	0xbfb20452	-1.3907568
157	0xbf8896eb	-1.0671057
158	0xbfdc04ff	-1.7189025
159	0xbed194a9	-0.4093373
160	0xbf9f3743	-1.243874
161	0x3f2d453a	0.67683756
162	0xbe395e5a	-0.18102399
163	0xbd5f2cc4	-0.05448605
164	0xc011a121	-2.2754595
165	0xc011ffac	-2.28123
166	0xc012728c	-2.2882414
167	0xc0116afb	-2.2721546
168	0xbf2bac8b	-0.67060155
169	0xbe40cb60	-0.18827581
170	0xbf71b18c	-0.9441154
171	0xbd8fad15	-0.07015435
172	0xc0123ef6	-2.2850928
173	0x3d2852ca	0.04109458
174	0xbf86c590	-1.0529041
175	0xc0134da5	-2.301614
176	0x3cf435e7	0.029810859
177	0x3d1d0486	0.038334392
178	0xc01246f6	-2.285581
179	0x40ec8f91	7.392525
180	0xbdd09458	-0.10184544
181	0xc0120afe	-2.281921
182	0xbfa64d1b	-1.2992281
183	0xc0127fab	-2.2890422
184	0xc0429c8b	-3.0408046
185	0xbf430779	-0.7618328
186	0xbe725dbc	-0.2366857
187	0xbdc1d822	-0.09465052
188	0xc0173112	-2.36237
189	0xc0121e2e	-2.283092
190	0xbcbcf2b4	-0.023064949
191	0xbf834050	-1.0254002
192	0xc0135e3c	-2.3026266
193	0xc01234b9	-2.284468
194	0xbd256779	-0.040381882
195	0xbb0e09a0	-0.0021673217
196	0xbf4a5914	-0.7904217
197	0xbfc66280	-1.549881
198	0xbcb32caa	-0.021871883
199	0xbfa03366	-1.2515686
200	0x3d39ef2d	0.04539411
201	0xbf5bd71c	-0.85875106
202	0x3d3c35f5	0.045949895
203	0xc011d91b	-2.278876
204	0xc015dafb	-2.3414905
205	0x4027949c	2.6184454
206	0x3cf996f7	0.030467493
207	0xbedcea7c	-0.43147647
208	0x3c675550	0.014119461
209	0xbf99031f	-1.1954077
210	0xbc9abac4	-0.018887885
211	0x3d1452ec	0.036211893
212	0xc0164ba2	-2.3483663
213	0x3f2efd66	0.68355405
214	0xbfb330e2	-1.3999293
215	0xbea44ef0	-0.32091475
216	0xbf49f7e2	-0.78893864
217	0xbb177ede	-0.002311639
218	0x3c1d9c86	0.009619838
219	0xbfcb74d8	-1.5895033
220	0xc012d9bd	-2.2945397
221	0x3e826bd3	0.25472888
222	0xc0131fe2	-2.298821
223	0xbf881fda	-1.063472
224	0xbe8f1e82	-0.27952963
225	0xc0431784	-3.0483103
226	0x3c928ab8	0.017888412
227	0xbfc11010	-1.5083027
228	0xbd38472c	-0.04498975
229	0xbf919209	-1.1372691
230	0xbd7a918d	-0.061173964
231	0xbdca5cb9	-0.09880967
232	0xbede96be	-0.43474382
233	0xbebc9c90	-0.36838198
234	0xbf8d01d2	-1.101618
235	0x3ea0fb4f	0.31441733
236	0xc012a55a	-2.2913423
237	0xbdc45319	-0.09586162
238	0xbfb172f9	-1.3863212
239	0xbfbde011	-1.4834005
240	0x3ca01d2c	0.01954516
241	0xc00f0fbd	-2.2353356
242	0xbfea0687	-1.8283242
243	0x3d38a7b7	0.04508182
244	0xbf1e582a	-0.6185328
245	0xbf9b3e11	-1.2128316
246	0xbddf1943	-0.1089349
247	0xbf7ea83f	-0.99475473
248	0xbfa378e0	-1.2771263
249	0x3fcb0e87	1.5863808
250	0x3c262a03	0.010141852
251	0xbbed89b8	-0.0072490834
252	0xbd062d46	-0.03275802
253	0xbd2a68f2	-0.04160399
254	0xbd42b16c	-0.047532484
255	0xbd3bb918	-0.045830816

l3.bias f4 [38]
0	0x3fb8843f	1.4415358
1	0xbd897c84	-0.067132026
2	0x3fc1092b	1.5080923
3	0x3fcfd018	1.623538
4	0xbd75972e	-0.05995863
5	0x4040c060	3.0117416
6	0x3fb2785a	1.3942978
7	0x3f9c078c	1.2189803
8	0x40082675	2.1273472
9	0xbed9e128	-0.42554593
10	0x400339ff	2.0504148
11	0x40142f6b	2.3153942
12	0x3fb9666d	1.4484383
13	0x4036ad38	2.8543224
14	0x40c1d524	6.057268
15	0xbdac4d96	-0.08413236
16	0x3fb6079a	1.422107
17	0x3ecdb326	0.40175742
18	0xbd8c4f76	-0.068510935
19	0xbd85ff41	-0.065428264
20	0x3f3563f0	0.7085562
21	0xbd88886d	-0.06666646
22	0xbf30550b	-0.68879765
23	0x4007b7c5	2.1205914
24	0x3fde03ea	1.7344944
25	0xbdb92d21	-0.09041811
26	0xbdd31864	-0.103073865
27	0xbdaec965	-0.08534507
28	0xbd5e32fc	-0.05424784
29	0x4035be20	2.8397293
30	0xbcc50e97	-0.024054809
31	0xbdbb50da	-0.091462806
32	0x3d189bce	0.037257962
33	0x4045a060	3.0879135
34	0x402b7f60	2.6796494
35	0xbd64e59c	-0.055883035
36	0x3f98e760	1.194561
37	0x3f81cdd7	1.0140942
